apps/typegpu-docs/public/assets/mnist-weights/layer5.weight.npy (npy, 262272 bytes, 1 tensors)

array f4 [128, 512]
00000000: 1909 1fbd 68e8 353d 1322 ad3c 0dcf 443c
00000010: 890d 12bd 9b4a ffbb c812 0fbc 19d7 693d
00000020: 6f4d 5f3c 83e8 73bc 60bc 7b3c a0ed 13bd
00000030: 7c3f a1bc ef43 803c 140c 5e3d 6220 3a3c
00000040: 748a 91bc 2e4f 48bc 03ee e6bc 4d01 563d
00000050: 0aa9 e0ba 5b9c 6b3c 8325 af3c 02e0 a7bc
00000060: c3c2 1a3d 158c b03c 9fe1 05bd 6b65 debc
00000070: b60c 0c3d 6870 f33b 122f 713c 6980 843c
00000080: 6d13 d43c 1835 243d eaee 8ebc c539 dd3c
00000090: 1898 283d 5cc4 20bd 1257 263d 2bb8 4e3d
000000a0: d46b 2b3c 80d5 aabc 467e 3a3d 0171 26bd
000000b0: fc4a c1bc eb7d d1bc 40df e3bc 7daa d23c
000000c0: f0bc 81bc 1bcc fc3c 6b3b 913c d809 683b
000000d0: 646f d63b 0ca9 41bd 9d61 af3c b044 6c3d
000000e0: 021f eebc 347b 943a ef24 b9bc d51e 073d
000000f0: 0604 033d 5a0d 2ebd f38e 793d f77e cebc
00000100: 1223 f8bc 5f54 acba e136 493d 92a7 393d
00000110: dc3e 3c3d fd88 23bd 7330 eabb ef54 97bc
00000120: 0ac1 4e3d 68ea 2f3d fbb9 15bd d476 183d
00000130: 2431 2d3d 67bf 1fbd 8413 55bd cdad fa3c
00000140: 2a22 15bd 1c49 1a3d bd43 0fbd 0637 283b
00000150: 4a30 fcbc 3a1e 893b a22d 31bd f8ac a9bc
00000160: c2dc f43c 2c14 c1bc 85e2 3f3d 2f3e 093d
00000170: f2d2 a9bb a3f1 073d da89 1c3d 34d9 a9b8
00000180: 986a a33b 628a 31bd 9d1d 15bc 12cd 10bb
00000190: 4283 613c c6f4 33bd 3462 153c f982 1c3d
000001a0: 4074 27bb fa4e 0ebd a579 113d 87e8 0d3d
000001b0: 1305 a3bc 6783 f4bb 5523 8abc 3bc9 023d
000001c0: 1608 3d3c 6d68 333b f1e6 fa3c 3ebb 303d
000001d0: 7d97 a6bc 40bd a13c c6b6 d63c bdd8 a43c
000001e0: 8741 c3bc 8ed3 d63c 732c 9b3c 5b88 2c3d
000001f0: 0735 0ebc 4773 06bb 520b ba39 fb52 f93c
00000200: 5c3e 933a 8dd9 d83c 20e2 663c ad2d 2a3d
00000210: a561 9e3c 0be1 03bc 9845 283d 5680 cf3c
00000220: dfd0 d53c ce28 2a3c 3a81 8cb9 8f14 0ebd
00000230: 57f4 a1bc 4b09 a2ba 77b5 bb38 cfde 77bc
00000240: 4ae0 b8bc 1762 4a3c 94dc 033d 168c 353c
00000250: 7d33 193d b84d b33c 932e 063d fcb7 1dbb
00000260: 8e0c b93c 1574 03bd 7051 bc3b 8ba4 debb
00000270: 26d3 c03c f11d 3ebd 7b94 8cbb 4c7c 153d
00000280: 1e97 12bd dfee 7bbc 96bb 1ebd 4d67 393c
00000290: b0e4 18bd 6335 4d3d 11d7 56bc feb5 4a3d
000002a0: 97bb 83bc f594 1c3c 7a05 d4bc 82b7 513c
000002b0: 691c 223c f741 b439 1024 1cbc 0846 12bc
000002c0: 5073 253d 427c 153d cc15 1cbd 6191 823a
000002d0: 637e 273d 9f6b 1a3d 318d 14bc 1d6c eabc
000002e0: 783c 153d 5e5c 703d b2b0 a9bc 311f 573c
000002f0: d20c 80bc 4178 6dbb 239d 10bc 2077 12bd
00000300: 5aa2 1abd 63c8 b73b ed7a 7ebc a0f0 8fbc
00000310: 786b 263d 3f48 3ebb 7fed cebc ff23 053d
00000320: db4a fabc 32d4 2ebc 1d7a 15bc 4001 b8bc
00000330: af96 0e3c da4f c5bc 3331 ee3c d5d0 32bd
00000340: cbda c1bc 58b8 c43c 8a80 0fbd b7f5 e0bc
00000350: a081 fdbc fe25 2d3c fb48 7f3c 8dac d8bc
00000360: b6f7 f2bc 57a1 df3c e686 333c 52f9 883c
00000370: 00ad e13b 778c 3f3d 4385 2d3d 45e5 1a3c
00000380: e9ed a53c ba80 6c3d b8cb 623d 4271 173d
00000390: cf6c 3ebb 32d8 733c 3407 c43c 17d6 b83c
000003a0: 3639 c73c 3393 8abc 5a3f d73c 4af2 163b
000003b0: a607 ce3b e826 11bd 0900 72bc 8da9 5dbb
000003c0: 5432 223a 1198 943c a62e 5abc 66a7 c73b
000003d0: 0dbf f9bc 7d7b c1bc 9283 d4bc 04e3 373d
000003e0: 4eac ab3b e874 a83c 3a8a 93bc bc47 323d
000003f0: 6923 013d 4f28 1a3d 9c7d 19bd f61c 573d
-0.038827036 0.044411093 0.021134412 0.012012255 -0.03565744 -0.007790876 -0.008732505 0.0570899
0.013629301 -0.014886978 0.015364736 -0.03611529 -0.019683592 0.015657393 0.054210737 0.01136026
-0.017766215 -0.012225909 -0.028189665 0.052247334 -0.0017140221 0.01438054 0.021380192 -0.020492557
0.037783395 0.021551171 -0.032685872 -0.02714797 0.03419181 0.0074291714 0.014720695 0.016174512
0.02588817 0.040089697 -0.017447907 0.027005086 0.041160673 -0.039249763 0.04061038 0.050468605
0.01046272 -0.020853758 0.04553058 -0.040635113 -0.023595326 -0.025572738 -0.027816415 0.02571606
-0.015837163 0.030859044 0.017728528 0.0035406258 0.0065440405 -0.047280356 0.02140885 0.057682693
-0.02906752 0.0011328221 -0.02260062 0.032988388 0.03198626 -0.0424932 0.060927343 -0.025207026
-0.03029016 -0.0013147703 0.049124602 0.045325823 0.045958385 -0.039925564 -0.007146889 -0.018473117
0.050477065 0.042948157 -0.036554318 0.0372227 0.042283192 -0.039000895 -0.052020565 0.030600453
-0.036409535 0.03766738 -0.03497671 0.0025667562 -0.030784745 0.0041845115 -0.04325641 -0.02071236
0.029890422 -0.023569189 0.046846885 0.03350657 -0.0051826173 0.033189427 0.038217403 -8.099005e-05
0.004987072 -0.043344863 -0.009101299 -0.0022094888 0.013764204 -0.043934606 0.009117652 0.038210843
-0.0025551468 -0.034743287 0.0355164 0.034645583 -0.01989988 -0.0074619534 -0.01686255 0.03193019
0.011537572 0.0027375475 0.0306277 0.043147318 -0.020335907 0.019743562 0.0262102 0.02012288
-0.023834957 0.026223924 0.018942093 0.042122226 -0.008679635 -0.0020515488 0.0003548512 0.030435076
0.0011233795 0.026470924 0.014091998 0.041547466 0.01933367 -0.00804926 0.041081995 0.02532975
0.026100574 0.010385705 -0.00026799162 -0.034687575 -0.01976983 -0.0012362389 8.950655e-05 -0.015128805
-0.022567887 0.012352488 0.03219278 0.011080762 0.03740262 0.021887645 0.03275926 -0.0024065962
0.022588994 -0.032093126 0.005747013 -0.0067945174 0.023538183 -0.046415273 -0.004290161 0.03649549
-0.035788648 -0.0153767755 -0.038753115 0.011316133 -0.03732747 0.05009974 -0.013112799 0.049489968
-0.01608066 0.0095569985 -0.025881518 0.012800099 0.009894469 0.00034381423 -0.009530082 -0.00892783
0.040393174 0.036495455 -0.038106725 0.0009961539 0.040892016 0.03770029 -0.009066866 -0.028616006
0.03643462 0.05868184 -0.020714138 0.013129995 -0.015631113 -0.0036235007 -0.008826527 -0.035758138
-0.037752487 0.0056086048 -0.0155322375 -0.017570794 0.040629834 -0.0029034761 -0.025259731 0.03250503
-0.030553272 -0.0106707085 -0.009123352 -0.022461534 0.008702918 -0.024085928 0.029076194 -0.04365619
-0.023663899 0.024013683 -0.035034694 -0.027460916 -0.0309456 0.01056814 0.015581365 -0.026449466
-0.029659133 0.027298613 0.010957455 0.016720448 0.0068870783 0.046764817 0.042363416 0.009454076
0.020255046 0.05773995 0.055370063 0.036973245 -0.0029056554 0.014883088 0.023929216 0.022563023
0.024319272 -0.016915893 0.026275326 0.00230326 0.006287533 -0.035437495 -0.014770516 -0.0033822984
0.0006187309 0.018138917 -0.013316786 0.0060929535 -0.030486608 -0.023618454 -0.025941644 0.044894233
0.005239046 0.020563558 -0.018010247 0.043525442 0.03152791 0.037636098 -0.037473306 0.052517854
