apps/typegpu-docs/public/assets/mnist-weights/layer7.weight.npy (npy, 2688 bytes, 1 tensors)

array f4 [10, 64]
0	0x3d703fbb	0.058654528
1	0xbe112f3a	-0.14178172
2	0xbc581a89	-0.01318992
3	0xbd893711	-0.06699956
4	0xbea703c7	-0.3262007
5	0xbe1239cc	-0.1427986
6	0xbce04965	-0.027378747
7	0x3dacb644	0.08433202
8	0x3df6d36d	0.12052045
9	0xbf075a84	-0.5287249
10	0xbb01d838	-0.0019812714
11	0xbd79b71a	-0.060965635
12	0x3e843e09	0.2582858
13	0xbc8b477f	-0.017001865
14	0x3dfef705	0.12449459
15	0xbf0b500b	-0.5441901
16	0xbd0e33f4	-0.034717515
17	0xbf1033ab	-0.5632884
18	0x3d4e7f75	0.05041452
19	0x3de59234	0.11209527
20	0xbe9d519c	-0.30726326
21	0x3f0c39a0	0.5477543
22	0xbe8fbe6f	-0.28074977
23	0x3e5ed78d	0.21761914
24	0x3dac9884	0.084275275
25	0x3c9ff58f	0.019526271
26	0x3d4f8df8	0.0506725
27	0xbc544cc2	-0.012957754
28	0xbea36742	-0.31914717
29	0xbe2806d2	-0.16408852
30	0xbc7d6916	-0.015466949
31	0xbdd7a86d	-0.105301715
32	0xbe125213	-0.14289121
33	0xbed00ab8	-0.40633178
34	0x3e7b78ab	0.2455775
35	0xbd80c957	-0.062884025
36	0x3ec18647	0.37797758
37	0x3d9d0695	0.07667271
38	0x3d2cf338	0.04222414
39	0x3dd5d50c	0.10441026
40	0x3cca5805	0.024700174
41	0xbd80dfca	-0.062926844
42	0x3e94a98e	0.2903561
43	0xbeaffa35	-0.3437058
44	0xbe5f34da	-0.21797505
45	0x3e4e8563	0.2016807
46	0xbd1911a8	-0.037370354
47	0x3e051295	0.1299537
48	0x3e2ad583	0.16683011
49	0xbe9305a7	-0.2871525
50	0x3dc61e9e	0.096738085
51	0xbdc437b4	-0.09580937
52	0x3e5658c6	0.20932302
53	0xbde51074	-0.11184779
54	0x3c42606b	0.011863808
55	0x3e20287e	0.15640447
56	0x3dcd4a5b	0.10023948
57	0xbdcc65fc	-0.099803895
58	0xbda622ac	-0.08112082
59	0x3e39b240	0.18134403
60	0x3d0f2b6b	0.034953516
61	0x3e3252d7	0.17414413
62	0xbdf82bb4	-0.12117711
63	0xbed3851a	-0.41312486
64	0x3c493759	0.012281262
65	0xbeca1b6e	-0.39474052
66	0x3db768f9	0.08955569
67	0x3de2303e	0.11044358
68	0x3db75193	0.08951106
69	0x3e1c2b43	0.15250878
70	0xbf0bb41c	-0.545717
71	0x3d47369e	0.04863607
72	0x3d0a8379	0.03381679
73	0x3d894a35	0.06703607
74	0x3ebee870	0.3728671
75	0x3d9ff5de	0.07810567
76	0xbe3dc211	-0.18531062
77	0xbf02ce84	-0.5109637
78	0xbee9e954	-0.45685828
79	0x3dd753fd	0.10514066
80	0xbeba3a95	-0.3637282
81	0x3d4a91ba	0.049455382
82	0x3cb0b240	0.021569371
83	0x3d151da3	0.036405217
84	0xbeb25577	-0.3483083
85	0x3cd625a8	0.026141003
86	0x3ed393bd	0.41323653
87	0xbe247ff1	-0.16064431
88	0xbec39175	-0.38196912
89	0x3de6c077	0.112671785
90	0x3dca7c84	0.09887031
91	0x3e2edf2a	0.17077318
92	0x3e410785	0.18850525
93	0x3e4ff99a	0.20310059
94	0x3e265b3d	0.16245742
95	0x3d36b154	0.044602707
96	0xbd2f1cd3	-0.0427521
97	0x3dc47e72	0.0959443
98	0xbeb66eae	-0.35631317
99	0x3e7c4f45	0.24639614
100	0x3de29439	0.110634275
101	0xbdc0ca48	-0.09413582
102	0xbe05f082	-0.13080028
103	0x3accdcd0	0.0015629772
104	0xbecc4f4a	-0.39904243
105	0x3e6c51cd	0.2307808
106	0xbecedcdd	-0.4040288
107	0xbea5c84e	-0.32379383
108	0x3e0545b2	0.13014868
109	0xbe3c9559	-0.18416347
110	0xbc106b24	-0.008814607
111	0x3dc6ab29	0.09700615
112	0xbdb67aa2	-0.08910109
113	0x3ebdc43a	0.3706377
114	0x3defd37c	0.11710259
115	0x3e35a94c	0.17740363
116	0xbe0dddab	-0.13854091
117	0x3d53e695	0.051733572
118	0xbe50de08	-0.20397198
119	0xbecb12a2	-0.39662653
120	0xbca41833	-0.02003107
121	0xbd8aa085	-0.06768898
122	0x3d990046	0.07470755
123	0xbe1c1691	-0.15242983
124	0xbdb813a6	-0.08988123
125	0xbe28ea6b	-0.16495673
126	0x3d370914	0.044686392
127	0x3d9ffbad	0.07811675
128	0x3d1b2d71	0.037885133
129	0xbe047e8b	-0.12938897
130	0xbdeceeae	-0.11568962
131	0x3d1780a3	0.036987912
132	0x3d79fe04	0.061033264
133	0x3e38694f	0.18008922
134	0x3d2034a0	0.039112687
135	0x3d0e5831	0.034752075
136	0x3d4b9e3e	0.04971146
137	0x3d09d437	0.03364965
138	0xbe56c5e7	-0.20973931
139	0x3c16c1ba	0.009201461
140	0x3ec6d6e0	0.38835812
141	0x3d94caec	0.07265267
142	0x3d8c3d32	0.068476096
143	0x3d773707	0.060355213
144	0x3e4e4da6	0.20146808
145	0x3d175c1e	0.036953084
146	0xbbc76a34	-0.0060856584
147	0x3d3ca608	0.046056777
148	0xbe0aadf9	-0.13542928
149	0xbb45af83	-0.0030164428
150	0xbe70dcb0	-0.23521686
151	0xbe567b4c	-0.20945472
152	0xbbcab43d	-0.006186037
153	0x3991237e	0.00027683
154	0x3dde6b5e	0.108603224
155	0x3db9eeee	0.09078775
156	0x3e3bb9cb	0.18332593
157	0x3e9817bb	0.29705605
158	0x3e323531	0.17403103
159	0x3b2881b2	0.002571207
160	0x3d5a91b0	0.053361595
161	0xbe627ddf	-0.22118329
162	0x3e87474b	0.2642158
163	0xbdd19dfa	-0.1023521
164	0x3d977029	0.0739444
165	0xbd558968	-0.052132994
166	0xbea10165	-0.31446376
167	0x3c590380	0.013245463
168	0xbe975c91	-0.2956281
169	0xbea687ca	-0.32525474
170	0x3ebb6caf	0.36606357
171	0xbdc293a6	-0.09500818
172	0x3e20654f	0.15663646
173	0x3e79eb85	0.2440625
174	0x3d66b5d0	0.056325734
175	0x3e128b65	0.14310987
176	0xbe9758d4	-0.29559958
177	0x3eef928e	0.467915
178	0xbd944660	-0.072399855
179	0x3de4ce60	0.111721754
180	0xbd7ad7a0	-0.061240792
181	0x3d03a49a	0.0321394
182	0xbdd5e6d0	-0.104444146
183	0x3dd99d12	0.10625662
184	0xbd310007	-0.043212917
185	0x39f17e72	0.0004606131
186	0xbe852d15	-0.26010957
187	0xbe2db668	-0.16964114
188	0x3db8ccb7	0.09023421
189	0xbe46d288	-0.19416249
190	0xbee745c6	-0.4517042
191	0xbe20b707	-0.1569482
192	0x3cd8b846	0.026455056
193	0xbeda7d90	-0.42673922
194	0x3d21032a	0.039309658
195	0x3dd91e3a	0.106014684
196	0xbd73575f	-0.059409495
197	0xbe22024d	-0.1582119
198	0x3e0d63cd	0.13807602
199	0x3d75fb2a	0.06005398
200	0x3d5b225f	0.053499576
201	0xbcd09baf	-0.02546486
202	0xbdbc1364	-0.09183386
203	0xbdac54de	-0.08414625
204	0xbd66bc8b	-0.056332152
205	0x3e17d337	0.14826666
206	0xbea67d53	-0.3251749
207	0x3ca9c203	0.020722395
208	0x3e0ec89c	0.13943714
209	0x3892cded	7.000179e-05
210	0x3d0266e9	0.031836424
211	0x3d6739f6	0.05645176
212	0x3e379b0d	0.17930241
213	0xbe1d6aac	-0.15372723
214	0xbdc39446	-0.09549765
215	0xbe19fc01	-0.15037538
216	0x3d8966ba	0.06709047
217	0xbdc11961	-0.09428669
218	0xbea9d52f	-0.3317046
219	0xbddc1096	-0.10745351
220	0xbe313212	-0.17304257
221	0xbd8add58	-0.06780499
222	0xbe89d95e	-0.2692365
223	0xbe0bd82a	-0.13656679
224	0x3daf4434	0.085579306
225	0x3e111415	0.14167817
226	0xbdf9097b	-0.121600114
227	0xbda6fdae	-0.08153854
228	0xbdb4561d	-0.08805487
229	0x3d33c8fa	0.043892838
230	0x3e228de6	0.15874442
231	0x3d876346	0.06610732
232	0x3d9321cf	0.07184183
233	0xbe588e8b	-0.21148126
234	0xbdadb4a8	-0.08481723
235	0x3e3289e0	0.17435408
236	0xbe02e128	-0.12781203
237	0x3e00e8aa	0.12588754
238	0xbe884dec	-0.2662195
239	0x3e312c7b	0.17302124
240	0xbe851d8f	-0.25999114
241	0xbc7937c0	-0.015211046
242	0x3dc2a064	0.09503248
243	0xbde2e47f	-0.110787384
244	0x3e223ef6	0.1584433
245	0xbc510c36	-0.012759259
246	0x3dfa4699	0.12220497
247	0x3de5d43b	0.112221204
248	0x3c49c557	0.012315116
249	0x3dcba140	0.09942865
250	0xbd820bf6	-0.063499376
251	0x3de2bf56	0.11071651
252	0xbd74f883	-0.05980731
253	0x3d13bd03	0.036068927
254	0x3d67a3c5	0.056552667
255	0x3db2794d	0.087145425
