apps/typegpu-docs/public/assets/mnist-weights/layer3.bias.npy (npy, 2176 bytes, 1 tensors)

array f4 [512]
00000000: b04e bdbc d2a3 9a3c 49f7 643b 5ad6 993c
00000010: 2e41 e73c 4452 06bd 4d58 873b 316b ddbc
00000020: c845 853b 7e7c 863c e0ba 01bd 08f0 e73c
00000030: 2268 87bc f58b 183b 24a1 353c a91b 3e3d
00000040: e58b 953c 967d abbc ca3c 35bc ab0a 11bc
00000050: 5781 8fbc b3ae 8d3c 490f b9bc 149f 063d
00000060: e3a6 273c 295e 94bb 4a96 1b3d eae7 85bc
00000070: 3e55 aabc 9828 df3c 26cd ae3b 2eab 8f3c
00000080: cc84 cd3b eea1 253d 8822 003d e22b 89bc
00000090: f4e4 223d 9f55 33bb 499f adba e1dd 7d3b
000000a0: 2668 80bc 89f1 c03c 5ac7 c9bc ac73 08ba
000000b0: 7020 da3c 5360 e33b faad 313c f539 f73c
000000c0: ef33 0e3d 49d9 31bc d021 73bb c353 2f3d
000000d0: 1c21 2a3d 1823 e83c cf14 ea3c b393 133c
000000e0: da7c 68bc acf8 edbc 5039 16bd a1cd 043d
000000f0: f50c 2dbc bff1 2b3d bd8f 523c 49f2 103d
00000100: 3a5b 023d 37ef 3bbd 790b 263c eec5 323c
00000110: 4a66 7c3a 6d5c 353d 43b2 95bc d5e7 fdbc
00000120: df34 af3c 730c d43c 911c 6ebc 1655 b2bc
00000130: b338 833b 7dac 91bc d2db e23c 98cc ef3c
00000140: 073e ba3c 4126 97bc 50e4 0c3d 13fe af3c
00000150: a724 2b3c f5dc 0d3a 3430 4b3d bb78 bd3c
00000160: 616f 373d 36ff 1bbd 5c50 34bc 138a a63c
00000170: 3491 8a3c 4906 1e3d 4bc0 423d d1f2 983d
00000180: 40c5 6a3d 45c2 3c3a f269 cd3c 5b96 543d
00000190: c67a 223d 484e 173d 69de 533c 3cea 56bb
000001a0: 20e5 ee3a 56d2 283c a71b 12bc fb87 b83a
000001b0: c3c4 7d3d 31d0 ed3c b139 88bc 6483 af3c
000001c0: 5cf1 5d3d 4696 d03c d11d 2b3d 48f6 ac3c
000001d0: e2bd 5a3c 7c17 423c 6038 89bc 12bd e0bc
000001e0: efbb 19bc 9f47 febb 5e3b 5f3c 795c 03bd
000001f0: bb4f 233d d065 f23c 6ac5 b13b cfe7 873a
00000200: 767a 613d 3745 8f3c fdff 403d ae39 bd3c
00000210: 1cb0 ff3c 456f 823c 2108 a73c 72fb 2b3d
00000220: b6cb 1abc 1c0f 14bb ac86 f939 b170 fcba
00000230: 2afd 6a3d 8f83 c93c 9d74 d0bc 8212 9bbc
00000240: 635d c33c 4a79 0ebd 3fc8 93bb e4cd 5e3c
00000250: e400 d73b 4828 d63c 1b17 643c 09bf c73c
00000260: 9aa3 463d 7e8a fbbb 945c 9f3c 3262 5fbb
00000270: ca20 633b 06fb 91ba a8d0 fc3b fcbe 3c3d
00000280: e3d3 d3bc 22c7 db3c 1c07 b83b 98c6 b13c
00000290: 8a65 c5bc 9224 a23c 4442 723c 0574 b33b
000002a0: 24c3 3d3d 4e2b 063c 5f05 bdbc 89c7 c1bc
000002b0: f3cc 1c3c f73b 18bc 8ad3 433c 116e e63c
000002c0: 5eb0 0a3d 2cc3 213c 4618 3cba f6e3 07bb
000002d0: 2d59 93bc b0f4 b43c a998 423c 3986 0b3d
000002e0: 8938 8b3b a1b9 02bd b234 c33b 1b54 31bb
000002f0: 0c49 673d 64c1 5ebc 0fa8 2c3d 4521 cc3b
00000300: d317 35bd 5db8 263d 8568 053d 3eac 48bc
00000310: 6e1b afbc 083c ed3c 311b 6c3d 12e9 013d
00000320: a099 533b 6687 ac3c 6318 043d 30d2 d03a
00000330: 64d1 21bd e9c5 d73b c4c2 0cbb 5a1e d93c
00000340: ee10 893c f171 8d3c 6d6e 8d3a d5d2 bfbb
00000350: cddd a4bc 849e bd3c 2c65 1dbd 8062 4fbc
00000360: 6ca1 d9bb ce24 163d 1030 9bbb a33f 65bb
00000370: 35cf 0a3d 5a4f cc3c 02de a3bb 57e3 40bc
00000380: 08c5 7c3c 5897 e63c 74cc 713b 0320 583d
00000390: bb42 c93b ec57 00bd 1221 7dbb 855e 35bd
000003a0: 7bb3 64bc 7764 0a3b dd1f f13c 88c8 e73c
000003b0: 1ebd 203d f73f 22bb 617e 42bb 7d58 003d
000003c0: 8f46 85ba 86a0 21bd 5dc2 a83c 6fa0 803c
000003d0: 7df7 a73c 16bd 9fbc 933e 4ebc 258c 003d
000003e0: 2211 203d d1c4 c83c 391d edbc 9be3 9ebb
000003f0: 5cd2 f43b 8142 013d 3c4b 653c 14ba 313d
-0.02310881 0.018876944 0.0034937433 0.018778969 0.028229322 -0.0327933 0.0041303993 -0.027028652
0.0040671565 0.016416784 -0.03167236 0.028312698 -0.016529147 0.002327678 0.011085782 0.046413098
0.018255183 -0.020933907 -0.0110618565 -0.008852641 -0.017517729 0.017295217 -0.022590296 0.032866552
0.01023266 -0.0045278263 0.037985124 -0.016345937 -0.0207926 0.027241036 0.005334514 0.01753768
0.006271934 0.04043763 0.03128293 -0.016744558 0.039769128 -0.0027364267 -0.0013246323 0.0038736986
-0.015674662 0.023552673 -0.024631191 -0.0005205225 0.026626796 0.006938973 0.010844702 0.030179003
0.034717496 -0.0108550275 -0.0037099011 0.04280449 0.04153548 0.028337047 0.028574375 0.009007382
-0.014189923 -0.02904924 -0.03667575 0.032422666 -0.010562171 0.041978594 0.012851653 0.03538731
0.03182528 -0.04588243 0.010134571 0.010911448 0.00096282794 0.044277597 -0.018273478 -0.030994335
0.021387516 0.025884843 -0.014533178 -0.021769088 0.004004562 -0.017782444 0.02769271 0.029272363
0.022734655 -0.018450858 0.034397423 0.021483457 0.01044575 0.00054116483 0.049606517 0.023128858
0.044783954 -0.038085185 -0.011005487 0.02032951 0.016914941 0.038580213 0.047546666 0.074681886
0.05731702 0.0007200579 0.025074933 0.051901203 0.039667867 0.03693989 0.012931445 -0.0032793423
0.0018226244 0.010304054 -0.008917726 0.0014078611 0.061955225 0.029029937 -0.016629072 0.021424957
0.054185256 0.025462281 0.041776482 0.02111353 0.013350936 0.011846419 -0.016750515 -0.027433906
-0.009383186 -0.0077600027 0.013624994 -0.03207061 0.03987096 0.029589564 0.005425145 0.0010368767
0.05504843 0.017489059 0.04711913 0.023098793 0.031211905 0.015922198 0.020389618 0.041987844
-0.009447983 -0.0022592014 0.0004759332 -0.0019259659 0.057370342 0.024598865 -0.02544623 -0.018929724
0.023848241 -0.03478364 -0.004509955 0.013598893 0.0065613855 0.026142254 0.013921524 0.024383085
0.048495866 -0.0076764217 0.019453324 -0.0034085629 0.0034656995 -0.0011137433 0.0077153035 0.046080574
-0.025857871 0.026828352 0.005616082 0.021701142 -0.02409627 0.019792829 0.014786307 0.005476477
0.04632868 0.008189036 -0.02307385 -0.023654716 0.009570348 -0.0092916405 0.01195229 0.028128656
0.033859603 0.009873193 -0.0007175248 -0.002073524 -0.017986858 0.022089332 0.011877217 0.03406355
0.004248683 -0.03191531 0.0059572095 -0.0027058187 0.056466147 -0.013595913 0.04215246 0.006229552
-0.044212174 0.040703166 0.03257038 -0.012248097 -0.021375384 0.02895929 0.05764312 0.031716414
0.0032287613 0.021060657 0.03224982 0.0015931781 -0.03950633 0.006584872 -0.0021478394 0.02650373
0.016731706 0.017266246 0.0010790356 -0.0058539906 -0.020125294 0.023146875 -0.038426563 -0.012657762
-0.0066415574 0.036656193 -0.004735954 -0.0034980557 0.033889014 0.024940182 -0.0050008306 -0.011772952
0.015427835 0.028148338 0.0036895545 0.052764904 0.006141988 -0.03133385 -0.0038624448 -0.044279594
-0.013958807 0.002111701 0.029434139 0.028293863 0.039242856 -0.0024757364 -0.0029677378 0.03133439
-0.0010168123 -0.039459728 0.020600492 0.0157015 0.020503754 -0.019499343 -0.012588161 0.031383652
0.03907884 0.024507912 -0.028944599 -0.00484891 0.007471366 0.031557564 0.013994988 0.04339035
