apps/typegpu-docs/public/assets/mnist-weights/layer1.bias.npy (npy, 2176 bytes, 1 tensors)

array f4 [512]
0	0x3c5acfc9	0.013355204
1	0xbd301a96	-0.042994104
2	0xbc04a375	-0.008095612
3	0xbd598368	-0.053103834
4	0xbd1aae75	-0.03776403
5	0xbca21f3b	-0.019790282
6	0x3d09b1ca	0.03361682
7	0x3cf63c3e	0.030058023
8	0xbd34e1b7	-0.04416057
9	0xbc4ec1a0	-0.012619406
10	0x3d163415	0.036670763
11	0xbd5236e2	-0.05132187
12	0xbc36da55	-0.011160453
13	0xba7d2631	-0.0009656875
14	0xbd460ba8	-0.04835096
15	0xbbdee634	-0.0068023447
16	0xbd586f1c	-0.052840337
17	0xbd1f677e	-0.038917057
18	0x3b1b2afe	0.0023676748
19	0x3cc9892f	0.024601547
20	0xbd5cd517	-0.053914156
21	0xbbe8cf7f	-0.0071048136
22	0xbd314b9e	-0.043285005
23	0xbd18dcfb	-0.03732012
24	0xbd8c85d9	-0.06861467
25	0xbbb1b258	-0.0054228716
26	0x3d574a35	0.052561004
27	0xbb0dec38	-0.002165569
28	0xbd05a575	-0.032628495
29	0xbaebc70c	-0.0017988398
30	0xbd5ecec5	-0.05439641
31	0xbcdc06ea	-0.026858766
32	0x3d221d58	0.039578766
33	0xbc29572b	-0.010335724
34	0x3cd27dbf	0.025694726
35	0xbd1a411d	-0.037659753
36	0x3caa0e76	0.020758849
37	0x3d089388	0.03334382
38	0xbbffc211	-0.007805117
39	0xbd650e95	-0.05592211
40	0xba0990ab	-0.00052476925
41	0xbcfe5beb	-0.03104969
42	0x3cd7e6b0	0.026355118
43	0xbd13a8c9	-0.036049638
44	0x3caf8352	0.021424923
45	0xbd415732	-0.047202297
46	0xbd4a12de	-0.0493344
47	0xbd2a8c1b	-0.04163752
48	0x3ce3b0a2	0.027794186
49	0x3c70ab39	0.01468926
50	0x3b36c69c	0.0027889377
51	0xbcebb6ab	-0.028773626
52	0x3d9d59f9	0.076831765
53	0xbc4349e4	-0.011919472
54	0x3d0b9d0c	0.03408532
55	0xbda254aa	-0.07926305
56	0xbcf776f8	-0.030208096
57	0xbccd714b	-0.025078436
58	0xbc444b9d	-0.011980918
59	0x3c93d81d	0.018047387
60	0x3d69bbbb	0.0570638
61	0x3cc2f868	0.02380009
62	0xbd55dde4	-0.052213565
63	0xbd7f8d7d	-0.062390793
64	0xbcdbac04	-0.026815422
65	0xbd59498b	-0.05304865
66	0x3b930dc8	0.004487727
67	0xbcb88abf	-0.022527097
68	0x3c77d775	0.015127053
69	0xbb779ea5	-0.0037783768
70	0x3ce15381	0.027505638
71	0xbce09289	-0.027413623
72	0x3e15af89	0.14617743
73	0x3c03e195	0.008049388
74	0xbbc10554	-0.0058905277
75	0x3e1cb303	0.15302663
76	0xbd135a6a	-0.035974897
77	0xbcd5f7fb	-0.026119223
78	0xbd02403c	-0.03179954
79	0xbcd4bb92	-0.025968347
80	0xbce29639	-0.027659522
81	0x3c0c5475	0.008565058
82	0xbc8ec2d4	-0.017426886
83	0xbd83477b	-0.06410118
84	0x3db0505a	0.08609076
85	0xbd5cb1c4	-0.053880468
86	0xbc5eb05d	-0.013591853
87	0xbd730e9a	-0.059340097
88	0x3d150fc0	0.036391973
89	0x3b55a2d1	0.0032598267
90	0x3ccc2cbd	0.024923677
91	0xbc7b1783	-0.01532543
92	0xbd1b6b76	-0.03794428
93	0x3d3772c9	0.044787202
94	0xbca350cb	-0.019935986
95	0xbd373e3b	-0.044737082
96	0xbd4669a5	-0.048440594
97	0xbd062c9b	-0.032757383
98	0xbbed428c	-0.007240599
99	0xbc2abacc	-0.010420512
100	0xbd2ba566	-0.041905783
101	0x3c17c42c	0.00926308
102	0xba5aef5d	-0.0008351708
103	0xbd063f53	-0.032775234
104	0xbcb34e9e	-0.021888074
105	0xbcfc1492	-0.030771527
106	0x3b891807	0.0041837725
107	0x3d966353	0.07343163
108	0xbc2cb1cf	-0.01054044
109	0x3ddd13fd	0.10794828
110	0xbd303970	-0.043023527
111	0x3cdbd79f	0.026836215
112	0xbc095a10	-0.008383289
113	0x3b9ec1f3	0.004844898
114	0xbc905ff8	-0.017623886
115	0xbd36269e	-0.044470422
116	0xbd3bbe14	-0.04583557
117	0x3de945da	0.11390276
118	0x3c5abf86	0.013351327
119	0xbaa3a2eb	-0.0012484466
120	0x3cc52f28	0.024070337
121	0x3d7c6732	0.061621852
122	0xbd80b2b7	-0.06284087
123	0xbbce92a3	-0.0063041016
124	0xbdb777b9	-0.08958382
125	0x3ca3c368	0.019990638
126	0x3d686db2	0.05674524
127	0xbd2e2e5c	-0.04252468
128	0xbd28327a	-0.041063763
129	0xbd4feb48	-0.05076149
130	0xbd2d4df3	-0.042310666
131	0x3c70f616	0.014707109
132	0x3d0728dd	0.032997955
133	0x3c992b3a	0.01869737
134	0x3cbd9596	0.023142617
135	0xbd1ef67b	-0.03880928
136	0xbc9fb1f3	-0.019494032
137	0xbd44f42a	-0.048084415
138	0xbbcbe30e	-0.0062221354
139	0xbcc98b8b	-0.024602672
140	0x3cc97a5e	0.024594482
141	0xbbb506d2	-0.0055244947
142	0xbdd24799	-0.102675624
143	0x3da0984f	0.078415506
144	0xbdb4d6eb	-0.08830055
145	0xbc9f412c	-0.019440256
146	0x3d5f89b1	0.054574672
147	0xbd0e71c6	-0.03477647
148	0xbd7314bd	-0.05934595
149	0xbd9b0c10	-0.0757066
150	0x3d5e5a94	0.0542856
151	0x3c2dc425	0.0106058465
152	0x3bc2fa12	0.005950221
153	0x3c345116	0.0110056605
154	0xbd5379d6	-0.051629864
155	0x3d85ab0f	0.065267675
156	0xb9f6bfab	-0.0004706358
157	0x3bbf96ed	0.005846849
158	0xbd1c8ecb	-0.038222115
159	0xbc22e87d	-0.009943125
160	0x3cb93b0b	0.022611162
161	0xbd9acf40	-0.07559061
162	0xbd1e52a8	-0.038653046
163	0xbc9b94a7	-0.018991781
164	0x3ced2930	0.028950304
165	0x3d159414	0.03651817
166	0x3af381b4	0.0018578083
167	0xbc141201	-0.009037496
168	0x3da89922	0.08232333
169	0xbd283b1f	-0.041072007
170	0xbd810d22	-0.06301333
171	0xbc525107	-0.012836701
172	0xbcfcc35b	-0.030854871
173	0xbd366d3a	-0.04453776
174	0xbc9d49a5	-0.019200156
175	0x3bed1231	0.0072348346
176	0xbd0960ce	-0.033539586
177	0x3d214798	0.039374918
178	0xba10b372	-0.00055199035
179	0xba6ebe92	-0.00091073767
180	0x3c51e176	0.012810102
181	0xbc4b1f00	-0.012397528
182	0xbccf76b4	-0.025325157
183	0xbd28c492	-0.04120309
184	0xbd73dbb5	-0.0595357
185	0xbd7ea1b9	-0.06216595
186	0xbc8823aa	-0.016618568
187	0xbce05f5f	-0.027389226
188	0x3d02eca2	0.031963952
189	0xbd71d103	-0.05903722
190	0xba4bf241	-0.0007779934
191	0xbc21f1d9	-0.009884321
192	0xbc702da9	-0.014659324
193	0xbd12775b	-0.035758357
194	0xbbed7193	-0.007246205
195	0xbd53d460	-0.05171621
196	0x3cead070	0.028663844
197	0xbd036218	-0.03207597
198	0xbd2d60d6	-0.042328678
199	0xbd46336c	-0.048388883
200	0xbc662266	-0.014046287
201	0x3d9dcb0d	0.077047445
202	0xbd007498	-0.031361192
203	0xbbc8a6ee	-0.006123415
204	0xbd117b31	-0.035517875
205	0x3c054801	0.008134843
206	0xbdaa0797	-0.08302229
207	0xbcc05830	-0.023479551
208	0x3ca1d0bc	0.019752853
209	0xbc08d96d	-0.00835262
210	0x3d06f6a6	0.032950066
211	0xbc688955	-0.014192899
212	0xbd01518f	-0.03157192
213	0x381ba535	3.710874e-05
214	0xbd298a6a	-0.041391768
215	0x3d7f425e	0.062319152
216	0xbccb8504	-0.0248437
217	0x3c822607	0.015887273
218	0xbd027273	-0.03184743
219	0x3cb46a98	0.022023484
220	0x3d3747d0	0.04474622
221	0xbc1198f1	-0.008886562
222	0xbd39fdb0	-0.04540795
223	0xbc8a945c	-0.016916446
224	0xbd4f6fbb	-0.050643664
225	0xbd40bb57	-0.04705366
226	0xbd6cff54	-0.057860687
227	0xbd5825d4	-0.05277045
228	0xbce466c6	-0.027881037
229	0xbd2da576	-0.042394124
230	0x3d54bc65	0.05193748
231	0x3d19dc25	0.03756346
232	0xbc897a9f	-0.016782103
233	0xbd0675ad	-0.032827068
234	0x3d5fa090	0.054596484
235	0xbd9d6000	-0.07684326
236	0x3d01db49	0.031703267
237	0x3d0500ac	0.032471344
238	0x3d2d57fc	0.042320237
239	0xbd935bd2	-0.07195248
240	0xbd0a2356	-0.033725105
241	0xbcd18199	-0.025574492
242	0x3c89f86b	0.016842088
243	0xbd889df2	-0.06670751
244	0x3cb1d168	0.021706298
245	0x3c912f49	0.017722743
246	0xbc9a3483	-0.018823868
247	0xbd111573	-0.035420846
248	0xbd8da6d2	-0.06916584
249	0x3b0c49a8	0.0021406207
250	0xbdfda414	-0.12384811
251	0xbc47971d	-0.012182024
252	0xbd635f22	-0.055510648
253	0xbd6799af	-0.05654305
254	0xbdad44c1	-0.084603794
255	0xbd5b8ae6	-0.05359926
