apps/typegpu-docs/public/assets/mnist-weights/layer5.bias.npy (npy, 640 bytes, 1 tensors)

array f4 [128]
-0.038689625 0.005731058 0.07935751 -0.042241957 0.1074381 0.04329992 0.050797462 -0.027572092
0.041056026 -0.066192105 0.028832199 -0.034611046 0.013909513 -0.020546526 0.1239619 -0.027050009
0.058480166 0.011554 -0.026303025 0.0022344533 0.20216073 0.06503532 -0.0014602445 0.14092608
-0.02485311 -0.079323836 0.0035926 -0.029135076 0.049535286 0.09926916 0.03463769 0.037829045
-0.016954266 -0.025099091 -0.05424341 0.108559944 0.008857941 0.0022362964 0.0029720024 0.05108198
-0.08150982 -0.0276432 0.028382357 -0.052876543 -0.037446357 0.0047255848 -0.15137532 -0.0959556
0.0010657843 0.030056445 0.0052796793 0.141501 -0.0045619174 -0.0010870781 -0.03405729 -0.030393379
0.122317046 -0.045273107 -0.038647365 -0.0011923233 0.0035627505 0.037990484 -0.007071926 0.10818023
0.05586358 0.08612763 -0.07308972 0.006159164 -0.06330308 0.13197482 0.064838365 0.006721117
-0.036682356 0.026915228 -0.041276902 0.012682863 -0.016107924 0.011628186 0.091071896 0.04843766
0.0029430322 0.05263272 0.0045249853 -0.016735734 0.03021181 -0.076747894 0.025733106 -0.04287186
0.066691734 0.032633092 -0.034698058 0.062117763 0.02470967 0.018482184 0.038333118 0.01827626
0.12316755 0.007624844 0.10797395 -0.03353375 -0.015180113 -0.004487544 -0.0003762545 -0.00564377
0.089300424 0.024697287 -0.069170296 -0.04873085 -0.09044129 -0.0065563144 0.026512193 -0.08076115
-0.042766638 -0.043253165 -0.05905963 0.037235808 -0.047451105 -0.04912225 -0.057815798 -0.0457307
0.02221494 0.06298358 -0.008157745 -0.07114019 0.065805815 0.11550215 0.062213745 -0.024032747
00000000: 0379 1ebd 99cb bb3b 3186 a23d e705 2dbd
00000010: 8208 dc3d 425b 313d 0011 503d dede e1bc
00000020: 5d2a 283d ba8f 87bd 8131 ec3c 50c4 0dbd
00000030: bae4 633c 3051 a8bc bddf fd3d fb97 ddbc
00000040: e688 6f3d fd4c 3d3c 7179 d7bc e86f 123b
00000050: 3903 4f3e 3d31 853d ad65 bfba ed4e 103e
00000060: c098 cbbc 8974 a2bd d471 6b3b afac eebc
00000070: 83e5 4a3d a14d cb3d 40e0 0d3d a1f2 1a3d
00000080: ace3 8abc 9c9c cdbc 562e 5ebd ad54 de3d
00000090: e620 113c d48e 123b edc5 423b 573b 513d
000000a0: 9fee a6bd fe73 e2bc 1e82 e83c 1395 58bd
000000b0: 5a61 19bd 14d9 9a3b 2202 1bbe 5f84 c4bd
000000c0: c9b1 8b3a ef38 f63c 2901 ad3b a3e5 103e
000000d0: 237c 95bb 4a7c 8eba a87f 0bbd 89fb f8bc
000000e0: 5c81 fa3d 4b70 39bd b34c 1ebd bb47 9cba
000000f0: 097d 693b e99b 1b3d 9dbb e7bb 998d dd3d
00000100: 36d1 643d af63 b03d 10b0 95bd d0d2 c93b
00000110: 0ca5 81bd 6824 073e fac9 843d d13c dc3b
00000120: 3d40 16bd 537d dc3c f811 29bd c8cb 4f3c
00000130: c4f4 83bc 2684 3e3c e783 ba3d 9166 463d
00000140: e3df 403b 6895 573d 5446 943b 6119 89bc
00000150: c27e f73c 002e 9dbd 3cce d23c 679a 2fbd
00000160: ad95 883d 47aa 053d 8d1f 0ebd 326f 7e3d
00000170: ef6b ca3c f367 973c 3003 1d3d 18b8 953c
00000180: 453f fc3d d4d9 f93b 7221 dd3d af5a 09bd
00000190: 02b6 78bc 3f0c 93bb 0644 c5b9 60ef b8bb
000001a0: 24e3 b63d f751 ca3c 28a9 8dbd 009a 47bd
000001b0: 4839 b9bd 5ad6 d6bb 1930 d93c 1a66 a5bd
000001c0: 122c 2fbd 3b2a 31bd 83e8 71bd 9384 183d
000001d0: 175c 42bd 6a34 49bd 42d0 6cbd 1d50 3bbd
000001e0: 1bfc b53c 89fd 803d 10a8 05bc f3b1 91bd
000001f0: 33c5 863d 648c ec3d d7d3 7e3d 53e0 c4bc
