apps/typegpu-docs/public/assets/mnist-weights/layer6.weight.npy (npy, 32896 bytes, 1 tensors)

array f4 [64, 128]
000000 31 4d 23 bd 2a 59 dd bb 59 c2 be bc f8 6a d4 bc
       -0.039868537 -0.006755014 -0.023286032 -0.025929913
000010 12 15 59 3c ef 05 96 bd e1 cd 62 bb f8 58 db 3d
       0.013249652 -0.073253505 -0.0034607577 0.10710329
000020 ec 65 10 39 07 a7 22 3e 75 37 a8 3c a7 82 c0 3d
       0.00013770879 0.15884028 0.020534256 0.0939992
000030 97 46 1c bd f9 3f 91 3d 30 c2 f4 bc 7b 6f 93 3d
       -0.038153257 0.0709228 -0.029877752 0.071989976
000040 ab 65 ac 3c 9b 6b 0c 3d 01 28 05 bd c0 66 3d 3d
       0.021044573 0.034282308 -0.032508854 0.04624057
000050 86 f2 1a 3b 4f 9a ce 3c 20 9d 56 3d 8e 41 63 bd
       0.002364309 0.025220064 0.05239594 -0.05548244
000060 21 26 16 bd d7 98 52 3d e5 db 8e 3d d8 b4 0d 3e
       -0.036657456 0.05141529 0.06975535 0.13838518
000070 d9 46 41 bd 89 07 45 bd 2a f2 2b 3e 56 ed fe bc
       -0.047186706 -0.04810289 0.16791597 -0.03111903
000080 ed 02 3f 3e 1c c8 f7 3c 4d 71 70 3e 67 78 4a bd
       0.1865346 0.030246787 0.23480721 -0.04943123
000090 20 fa 7e 3d 2a 53 1d bd 73 13 60 bb 57 ff d6 3c
       0.062250257 -0.03840939 -0.003419128 0.026244802
0000a0 aa 3e 9b 3d 4c 19 bb bb 5f bf 46 bd 3e 6f 3f 3e
       0.075803116 -0.0057098027 -0.04852235 0.1869478
0000b0 e1 b6 95 bd 64 7b 7b 3d 2d ce 64 3e cc 93 0e 3e
       -0.07310272 0.06139697 0.22344275 0.13923568
0000c0 ff e5 d1 bb 32 5c f9 bc 5d dc 36 bd 6f d7 8e bc
       -0.0064055915 -0.03043947 -0.04464375 -0.017436711
0000d0 b7 a7 1f 3d 94 c1 f0 bc e1 84 95 bc 78 a0 34 bd
       0.038978305 -0.02938918 -0.018251838 -0.044098347
0000e0 4f 4c 56 3d eb 63 e8 bc 0d ad d2 3c b5 8e 00 bc
       0.052318867 -0.028367957 0.025717283 -0.007846524
0000f0 81 aa fd bc 90 40 76 3d 64 35 19 bd b3 40 88 bd
       -0.030965092 0.060120165 -0.037404433 -0.066529654
000100 e3 9a 02 bc f6 19 bb 3d a1 31 1e 3c bb d5 00 3c
       -0.007971498 0.09135811 0.009655387 0.007863457
000110 6c a0 e7 bc 6f bf d8 bd 6d 47 43 bc 83 cb 22 3d
       -0.028274737 -0.10583388 -0.011918885 0.039744865
000120 e2 4f 44 bd e1 4f 0b bd 14 e3 85 3d 35 b0 29 3d
       -0.047927745 -0.034011725 0.06537452 0.04142781
000130 fc 3c 90 bd d3 0c 11 3e 19 5a 16 3d fe c8 ba bd
       -0.07042882 0.14165048 0.036707018 -0.091203675
000140 73 bd 9a bc bc 71 e5 3c 30 be ef bc ad 57 31 bc
       -0.018889165 0.028008334 -0.029265493 -0.010824126
000150 69 c4 18 bd 82 33 92 bc 04 9e f0 bc e0 8f e2 3c
       -0.037296686 -0.017846826 -0.029372223 0.027656496
000160 58 bf a7 3b 62 b0 af bd c2 b2 5b 3d a8 20 93 3d
       0.0051192455 -0.08578564 0.053637274 0.07183963
000170 44 70 4d 3c 93 fe 84 3d 5e cd 7d bd 71 0e 94 3c
       0.012538973 0.06493869 -0.06196343 0.018073292
000180 6e b0 13 bd d8 8b 2d 3d 23 34 fc 3c 2f c4 94 3d
       -0.03605693 0.042369694 0.03078658 0.072639816
000190 ff 3d a5 3c 6f 83 92 bd f4 3d 3b bd b9 fd 1a 3e
       0.020171164 -0.07153975 -0.04571338 0.1513585
0001a0 66 ec dd 3c b1 aa d3 bd d9 a5 dd 3d 8a cc 5f bd
       0.027090263 -0.10335291 0.108226486 -0.054638423
0001b0 55 57 81 3e e3 9a 95 3d e3 86 92 3d 60 b5 2c 3c
       0.25261942 0.07304933 0.07154634 0.01054129
0001c0 4f b8 57 bc 5f d3 ef bb bf 15 3d 3e 38 fd 9e 3d
       -0.013166501 -0.0073188986 0.18465327 0.077631414
0001d0 a3 be f4 bb 9a 36 dd 3c f4 09 2e 3e f6 4d 62 3d
       -0.0074690147 0.027003575 0.16995984 0.05525013
0001e0 50 45 0f bc 76 c1 4f bd 5d c3 4e 3c e0 14 e8 3d
       -0.008744553 -0.050721608 0.01261982 0.113321066
0001f0 81 e1 12 bd 01 14 17 bc a5 b0 01 3e e3 54 d2 bc
       -0.03585959 -0.009221078 0.12665041 -0.025675243
000200 a2 5f b1 3b cb 55 65 3d 77 fe 53 3d 61 20 f1 bc
       0.0054130116 0.05599002 0.05175635 -0.029434385
000210 fd 14 b0 3d d8 94 85 3b ba 2d a6 bc 48 f6 9a ba
       0.08597753 0.0040765814 -0.020285476 -0.0011822665
000220 a6 fb 17 bd 48 71 fb bd a9 fb 3d bd 54 c6 3f be
       -0.037105225 -0.12277466 -0.04638258 -0.18728
000230 a3 a8 b6 3d da 48 4b bd 86 9c d5 3d c4 b2 e6 bb
       0.08918884 -0.049630024 0.10430245 -0.0070403535
000240 9e a6 d3 3c 7a 7e cf bc ef 5d 68 bd 94 fd 80 3d
       0.025836285 -0.025328863 -0.056730207 0.06298366
000250 f8 b5 19 3e 10 4f bb 3d e6 20 40 bc fe e7 ac 3d
       0.15010822 0.09145939 -0.011726594 0.084426865
000260 d2 2d 75 3d 19 93 23 be a7 45 b4 bd 7c 63 5a be
       0.05985815 -0.15974082 -0.08802348 -0.21327013
000270 32 c2 0c bd af 59 9f 3d ff be f7 bb f1 c8 e9 bc
       -0.034364887 0.07780778 -0.0075606103 -0.0285382
000280 2c b6 3c be 3c 14 92 bd fb 92 0f be bf f4 4a 3d
       -0.18428868 -0.07132766 -0.14020912 0.049549814
000290 24 36 ba bd 88 66 d8 bd aa 1b 3d bd ee 72 9b 3d
       -0.09092358 -0.10566431 -0.04616896 0.075902805
0002a0 1a 15 5f be 01 61 62 bd 3c 2d a6 3c c7 4b 45 be
       -0.21785393 -0.05526829 0.020285241 -0.19267188
0002b0 cd b1 8c bd ee e4 7c bd 87 ee 4e be 05 e6 b9 3b
       -0.0686985 -0.061741762 -0.20208178 0.0056731724
0002c0 61 2a 9b bd 10 ec 09 3d 4f 02 97 bd 9d 4a fa bc
       -0.075764425 0.033672392 -0.07373487 -0.030553157
0002d0 08 2f b4 3c b5 9f 9b bc 83 09 ed bd 3e 3a 8c 3d
       0.021995082 -0.018997053 -0.1157408 0.06847046
0002e0 0b 82 bc 3b 14 b0 4b bd 79 e3 a4 bd 16 e2 68 bd
       0.005752807 -0.049728468 -0.080511995 -0.056856237
0002f0 e4 aa 4c 3d 18 79 e5 3c 4c a7 90 3d 1c 28 b3 3d
       0.04996766 0.028011844 0.07063159 0.08747885
000300 43 39 ee 3d f5 d7 9a 3d dc c2 4a bd ad b3 2c be
       0.116320156 0.07560722 -0.04950224 -0.16865416
000310 67 fb c0 bd c1 00 c6 3d ff c3 be bc 61 40 3a be
       -0.09422951 0.096681125 -0.023286818 -0.18188621
000320 50 33 08 bd ed bf 8d bd 5b e0 7e bd 82 82 e6 bb
       -0.03325206 -0.069213726 -0.06222568 -0.0070346007
000330 bc f8 92 bd 7a 8e a1 3b 58 c2 ea 3c ae a8 b5 3d
       -0.071763486 0.0049303146 0.028657123 0.08870064
000340 be 0d 30 3d e7 f2 5e 3d 65 3f 20 bd 06 9e c4 bd
       0.042981856 0.05443087 -0.039122958 -0.09600453
000350 28 fe d3 3c 32 c2 9f bb 9a d5 cd bb e5 db e6 3b
       0.025878027 -0.004875445 -0.006281567 0.0070452564
000360 43 ae d0 3d 57 f2 0b 3e ee 23 99 3d a6 a2 ed bc
       0.10189488 0.13666664 0.07477556 -0.02900822
000370 ab 41 72 3d 46 14 2e bd b9 13 56 bd 13 87 43 3d
       0.059144657 -0.042499803 -0.052264903 0.04773624
000380 6b 70 a1 3b 07 03 ca bd f7 7f 35 3d e5 a3 05 bd
       0.0049267313 -0.09863859 0.04431149 -0.032627005
000390 2b ad 02 bd 4e 3b 79 3d 01 aa 97 bc c8 83 8c bd
       -0.031903427 0.060847573 -0.018513681 -0.06861073
0003a0 c3 c6 15 3e 93 4c 9b 3d bb 20 8b bd 8c 3e c8 bc
       0.14626603 0.07582965 -0.06793352 -0.024443887
0003b0 3c 42 4c be 45 aa 5f bd a1 c6 a7 3d 60 1c a7 bd
       -0.19947141 -0.05460574 0.08192182 -0.08159709
0003c0 fb 63 01 bb dc cc 9a bd b6 77 16 be 7f 91 e6 bc
       -0.001974343 -0.07558605 -0.14694104 -0.02814555
0003d0 78 4f 39 3c 7b 2d 09 bd d6 44 d5 bd 42 0e 3f 3c
       0.011310451 -0.03349064 -0.1041352 0.011661114
0003e0 e0 c4 8a bc 56 ee aa 3d f0 67 e8 bd 4f c9 c8 bd
       -0.01693958 0.0834624 -0.113479495 -0.098040216
0003f0 8c 9f e0 3d dd 01 cc 3c 88 50 e7 bb b1 2d 86 bd
       0.10967931 0.024903232 -0.0070591606 -0.06551684
