apps/typegpu-docs/public/assets/mnist-weights/layer2.bias.npy (npy, 2176 bytes, 1 tensors)

array f4 [512]
0	0x3d165daf	0.036710437
1	0xbce81170	-0.028328627
2	0xbc3c6383	-0.011498335
3	0x3bcdb2e0	0.006277427
4	0xbc9a52f2	-0.01883838
5	0x3be80765	0.0070809596
6	0x3ca7a49c	0.020464234
7	0x3c142334	0.009041596
8	0xbcc6cef6	-0.024268609
9	0xbc1272d1	-0.008938507
10	0x3cd1a39d	0.025590712
11	0xbcc75440	-0.024332166
12	0x3cd1fc4c	0.025633
13	0x3d3c19a1	0.04592288
14	0x3d374dfe	0.044752114
15	0xbc6c62f8	-0.014427893
16	0x3c63397c	0.013868686
17	0x3d16db13	0.03683002
18	0x3cba99fe	0.022778507
19	0xbd743d22	-0.059628613
20	0x3cba41b3	0.022736406
21	0xbc251530	-0.010075852
22	0x3c12b887	0.008955128
23	0xbb831191	-0.003999897
24	0x3d213766	0.039359473
25	0xbd0fba9d	-0.035090078
26	0xbc484e67	-0.012225724
27	0x3ba1e0c1	0.004940123
28	0x3a29b59f	0.0006473902
29	0xbcafc7b8	-0.021457538
30	0xbca546bc	-0.02017533
31	0x3d3d8db7	0.046277728
32	0x3ba4b5e0	0.005026564
33	0xbca10759	-0.019656824
34	0x3cd4c7cf	0.025974182
35	0x3d38058d	0.04492717
36	0xbc8f86ca	-0.017520327
37	0x3b8699a3	0.0041076704
38	0xbc368f0a	-0.011142502
39	0xbc9b0210	-0.018921882
40	0x372bd411	1.024177e-05
41	0x3d3d882f	0.046272453
42	0x3d30c6af	0.04315823
43	0xbbef8f2d	-0.007310769
44	0xbcf1aab3	-0.029500341
45	0xbc587a12	-0.013212698
46	0xbc9d93b1	-0.019235464
47	0x3ca46b02	0.020070557
48	0xbb65ffe8	-0.003509516
49	0xbce44bf7	-0.027868254
50	0xbcdb2ba4	-0.026754208
51	0x3c9e00d1	0.019287499
52	0x3bbb45fd	0.0057151304
53	0xbd15726a	-0.036486067
54	0x3bf5b77e	0.0074986806
55	0x3cac7dd5	0.021056095
56	0x3bc55d7a	0.006023106
57	0xbcd2cd52	-0.02573267
58	0x3b2fe0ec	0.0026836945
59	0xbcb15d0a	-0.02165081
60	0xbcafd5a1	-0.02146417
61	0x3c43f993	0.011961359
62	0xbd02a930	-0.03189963
63	0x3d192079	0.037384484
64	0x3ce3b45a	0.02779596
65	0xbcee042b	-0.029054722
66	0x3d05dc91	0.03268105
67	0x3b98cac5	0.004662844
68	0x3c1cca6c	0.0095697455
69	0xbcb30cbd	-0.02185666
70	0xbc9d3e98	-0.019194886
71	0x3ca9bc87	0.02071978
72	0x3b0f1fd2	0.0021839035
73	0x3c2a2350	0.010384396
74	0x3cf1065e	0.029421981
75	0x3c94d2ef	0.018166987
76	0x3b10e2ce	0.0022107842
77	0x3d20790e	0.039177947
78	0x3c806ae7	0.015675975
79	0x3c86bbc6	0.01644696
80	0xbbffd4a5	-0.0078073316
81	0x3d354c74	0.044262365
82	0x3ca51803	0.020153051
83	0x3d19dc99	0.037563894
84	0x3ced29e0	0.028950632
85	0xbc604981	-0.0136894
86	0xbcb58ae6	-0.022160958
87	0x3bb010a7	0.005373079
88	0xbc8f5259	-0.017495321
89	0xbd02f7b3	-0.031974506
90	0xbc87488b	-0.016514083
91	0xbc8b1151	-0.01697603
92	0x3d233706	0.039847396
93	0x3c666fb3	0.014064717
94	0xbcd588b8	-0.02606617
95	0x3c6b7eab	0.014373462
96	0x3d3f6758	0.046729416
97	0x3cf3445f	0.029695688
98	0x3bf114d0	0.0073572174
99	0x3c318594	0.01083507
100	0xbc94da52	-0.01817051
101	0x3cca52bf	0.02469766
102	0xbcafaf6c	-0.021445952
103	0xbc4d1c9b	-0.012519027
104	0x3d0e2f48	0.03471306
105	0xbd125fc5	-0.035735864
106	0xbb0375d6	-0.002005925
107	0x3ca192ec	0.019723378
108	0x3c020125	0.007934843
109	0x3c44d61d	0.012013939
110	0x3cf799df	0.030224739
111	0xbcff9008	-0.03119661
112	0x3c9d3aa8	0.019193009
113	0x3bc01a01	0.005862475
114	0x3b6b8c36	0.0035941727
115	0xbd3ce0b2	-0.046112724
116	0x3cbaefc7	0.022819413
117	0xbc879f17	-0.016555352
118	0xbc426fd2	-0.01186748
119	0xbbf928c3	-0.007603736
120	0x3c5f7465	0.01363859
121	0xbd1bc1ba	-0.03802655
122	0x3c876747	0.016528739
123	0xbaa7b487	-0.001279489
124	0xbc577346	-0.013150042
125	0xbba20d68	-0.004945446
126	0x3cb5c033	0.022186374
127	0xbbdc876e	-0.0067300117
128	0x3ba95b6a	0.005168368
129	0xbc2155e8	-0.009847142
130	0x3d18cbc4	0.0373037
131	0xbd1d501f	-0.038406488
132	0x3d436a41	0.047708753
133	0x3cf23ab2	0.029569004
134	0xbc95b7e2	-0.018276159
135	0xbcacb93f	-0.021084426
136	0x3c6d418e	0.0144809615
137	0xbbf74407	-0.0075459513
138	0xbd274b84	-0.0408435
139	0x3cc4c2ae	0.024018612
140	0x3b2d0bba	0.0026404695
141	0x3d3923f2	0.045200296
142	0x3bd6d04d	0.006555593
143	0x3cbdc1af	0.023163645
144	0x3ce001df	0.027344642
145	0x3ca49eb7	0.020095212
146	0x3cc690a2	0.024238888
147	0x3d63edd7	0.055646744
148	0xbd25d7be	-0.04048895
149	0x3b82d8d2	0.003993132
150	0x3cae2ce1	0.021261634
151	0x3d810a98	0.06300849
152	0xbd1b8185	-0.037965316
153	0x3d6bf6ea	0.057608522
154	0x3d00649c	0.03134595
155	0xbca595bd	-0.020213002
156	0xbc58e978	-0.013239257
157	0xbc489e1a	-0.012244726
158	0xbd41556f	-0.047200616
159	0x3d67ea18	0.056619734
160	0xbcf35d62	-0.029707614
161	0x3c019203	0.007908347
162	0xbc4ca078	-0.012489431
163	0xbd80c609	-0.06287772
164	0x3cc341fd	0.023835177
165	0x3ccb770e	0.024837043
166	0x3b0bd2ce	0.0021335366
167	0x3bdd0508	0.0067449845
168	0x3c9a5e24	0.018843718
169	0xbc4b4ee4	-0.012408946
170	0xbbc023d0	-0.005863644
171	0xbd22f0e4	-0.039780512
172	0x3be09b7e	0.0068544736
173	0x39d7817f	0.00041104478
174	0xbb9c5436	-0.004770781
175	0xbc653519	-0.01398971
176	0xbd26a787	-0.04068711
177	0xbbb5cffa	-0.0055484744
178	0x3d1c38e8	0.038140208
179	0xbbc4e27a	-0.0060084434
180	0x3bf286a7	0.0074013057
181	0x3cece7d3	0.028919136
182	0xbcab04cf	-0.020876316
183	0x3d1595bc	0.03651975
184	0xbc5af438	-0.01336389
185	0xbc07a0c0	-0.008278072
186	0x3d00bfc5	0.031432886
187	0xbcc8dfbb	-0.024520746
188	0x3d500a27	0.050790932
189	0x3d413a06	0.047174476
190	0xbc5b17f3	-0.013372409
191	0x3d1feeee	0.03904622
192	0x3cfae246	0.030625474
193	0x3bc4116f	0.0059835236
194	0xbc477269	-0.012173274
195	0xbca3e82c	-0.02000817
196	0xbd029abb	-0.031885844
197	0x3c83d138	0.016090974
198	0x3d39008a	0.04516653
199	0xbcd11994	-0.025524892
200	0xbb24df4b	-0.0025157507
201	0x3c9f4b5d	0.019445116
202	0xbce2652d	-0.027636135
203	0x3d653ad4	0.055964306
204	0x3cb238a0	0.021755517
205	0xbc2e4efc	-0.0106389485
206	0xbc3f9b82	-0.011694791
207	0xbbd30684	-0.0064399857
208	0xbc9657e0	-0.018352449
209	0x3c8ca765	0.017169664
210	0x3c907f36	0.017638784
211	0xbd6a476d	-0.057197023
212	0x3cabd7a1	0.020976843
213	0x3d3c45f0	0.045965135
214	0x3d80f618	0.06296939
215	0xbb8fce20	-0.0043885857
216	0xbcdea551	-0.027178438
217	0x3c90e429	0.01768692
218	0x3d2a9ea2	0.04165519
219	0x3c69092c	0.014223378
220	0xbcacfcbd	-0.021116609
221	0x3d799911	0.06093699
222	0xbd1857b0	-0.037193
223	0xbd48b2df	-0.04899871
224	0x3c22e29f	0.009941726
225	0xbcf8a6f5	-0.030353049
226	0x3cb191e1	0.021676006
227	0x3c7f06a2	0.015565546
228	0x3c0118c2	0.007879438
229	0x3c86289d	0.016376788
230	0x3ce9da23	0.028546399
231	0xbbe583ef	-0.007004253
232	0x3d265959	0.040612552
233	0x3a684cfb	0.00088615686
234	0xbd2d57b9	-0.042319987
235	0xbd382be7	-0.044963744
236	0x3d1c4e0a	0.03816036
237	0x3cb9724c	0.022637509
238	0x3c458fbe	0.012058197
239	0x3c7f1925	0.01556996
240	0x3d00d808	0.031456023
241	0xbce982f7	-0.028504832
242	0x3b4e0c53	0.0031440451
243	0x3bf1ea98	0.007382702
244	0x3ce38a22	0.027775828
245	0x3964ba8f	0.00021813273
246	0xbd0e38ba	-0.034722067
247	0x3d2f9dd1	0.042875115
248	0x3c634ba3	0.013873014
249	0x3ceb691e	0.028736647
250	0x3cb3a5bf	0.02192962
251	0x3cc61a9e	0.024182614
252	0xbc9a41e9	-0.018830257
253	0x3d069a3f	0.032861944
254	0x3c93bb4f	0.018033652
255	0x3d1a9650	0.037741005
