apps/typegpu-docs/public/assets/mnist-weights/layer4.bias.npy (npy, 2176 bytes, 1 tensors)

array f4 [512]
0	0x3d0205f6	0.031743966
1	0xbcf429df	-0.029805122
2	0x3c33e31f	0.010979443
3	0x3d0e1a35	0.03469296
4	0x3d4f9dee	0.050687723
5	0xbd011905	-0.031518
6	0x3cc362c0	0.023850799
7	0xbcc3be3b	-0.02389442
8	0x3d86730d	0.06564913
9	0xbcd7d2a4	-0.026345558
10	0x3ca2c35d	0.019868547
11	0x3d4a5f11	0.04940707
12	0x3d2cbbe0	0.04217136
13	0xbc6d03eb	-0.014466266
14	0x3ad36e88	0.0016130963
15	0x39799f95	0.0002380594
16	0x3d0d2927	0.034463074
17	0x3b5d2cfa	0.0033748732
18	0x3d1f223b	0.038851004
19	0xbbb1df37	-0.0054282206
20	0xbcc6f541	-0.024286868
21	0xbca46782	-0.020068888
22	0x3d47213b	0.048615675
23	0xbc634af1	-0.013872848
24	0x3d2bd442	0.04195047
25	0x3ce3dbc7	0.027814759
26	0xbd12cb6a	-0.035838522
27	0x3d758279	0.05993888
28	0x3c36fb6e	0.011168344
29	0x3d098df4	0.033582643
30	0x3c9003be	0.01757991
31	0x3d0cf669	0.034414683
32	0x3c5ae5d5	0.01336046
33	0xbd037f40	-0.032103777
34	0x3d032734	0.03201981
35	0x3cc4e359	0.024034189
36	0xbd00eef6	-0.03147789
37	0x3d24b874	0.04021497
38	0xbcd186e5	-0.025577018
39	0x3d239083	0.03993274
40	0x3c785f55	0.015159448
41	0x3d03664a	0.032079972
42	0x3cb388ee	0.02191588
43	0xbbfe7f37	-0.00776663
44	0x3ca3914f	0.01996675
45	0x3bddd817	0.0067701447
46	0x3d15d5fb	0.03658102
47	0xbc2175ea	-0.009854773
48	0xbcfcb9f2	-0.030850384
49	0xbc920663	-0.017825311
50	0xbc8468d4	-0.016163267
51	0xbc1ab38c	-0.009442221
52	0x3d6b99f0	0.057519853
53	0x3d41554a	0.04720048
54	0x3d6cb6f3	0.05779166
55	0xbc1991fa	-0.009373182
56	0xbb41a89f	-0.002954997
57	0x3c524df4	0.012835968
58	0x3a2858bd	0.00064219144
59	0x3c241baa	0.010016361
60	0xbd742398	-0.059604257
61	0xbcf66666	-0.030078124
62	0x3d2d6f77	0.04234263
63	0xba01d4b4	-0.00049526547
64	0xbd009e57	-0.031401005
65	0x3d3bf508	0.045887977
66	0x3ce119e8	0.027478173
67	0xbb91c7b6	-0.004448856
68	0xbc3327a3	-0.010934743
69	0x3d2da856	0.042396866
70	0x3d4c0a4d	0.04981451
71	0xbbe9d887	-0.007136408
72	0x3cfeb014	0.03108982
73	0xbc5ecc78	-0.013598554
74	0xbd0b2e33	-0.033979606
75	0xbca69c3b	-0.020338168
76	0x3ca79ab6	0.020459514
77	0xbc2f5770	-0.010701999
78	0x3cb7ed18	0.022451922
79	0xbcb60d81	-0.022223236
80	0x3d8913b4	0.06693211
81	0x3ccb1183	0.024788624
82	0x3b02bd1d	0.0019949146
83	0x3b801307	0.0039085182
84	0x3d3fcf2a	0.046828426
85	0xbb40dd9d	-0.0029428967
86	0xbc68e55b	-0.014214839
87	0x3cab010a	0.020874519
88	0x3d20a60f	0.039220866
89	0x3d27f8b8	0.04100868
90	0x3c02ec09	0.0079908455
91	0x3d55c96b	0.05219404
92	0x3b8e760f	0.00434757
93	0xbbde0a6c	-0.0067761447
94	0xbd029b67	-0.031886484
95	0xbad72635	-0.0016414585
96	0x3d127356	0.035754524
97	0x3cb4ebec	0.022085153
98	0xbc419db7	-0.011817387
99	0x3ccabce7	0.024748279
100	0x3bc5b4aa	0.0060334997
101	0xbc1ae235	-0.009453346
102	0xbcd1ea8f	-0.025624542
103	0xbce75ecb	-0.028243443
104	0x3c0d68a8	0.008630909
105	0x3c6a17c5	0.014287894
106	0x3d9bad72	0.076014414
107	0xbd3e7b0e	-0.046504073
108	0xbc2a0259	-0.010376536
109	0x3ca74959	0.020420717
110	0x3cf4d618	0.029887244
111	0xbd1f349b	-0.038868528
112	0x3d5d4efe	0.05403041
113	0xbd4770ac	-0.048691437
114	0x3d8231d5	0.06357161
115	0x3c9ac332	0.018891905
116	0x3ce33dc7	0.027739419
117	0x3cf064a2	0.02934486
118	0x3d061b88	0.0327411
119	0xbd286db0	-0.04112023
120	0xbcd02110	-0.02540639
121	0xbbc33296	-0.005956958
122	0x3ca1e5fc	0.019762985
123	0xbc076f6f	-0.008266314
124	0xbd0658b1	-0.032799426
125	0x3c3e5227	0.011616266
126	0x3b8d193c	0.0043059867
127	0xbc5c6c7b	-0.013453598
128	0xb9eec35e	-0.00045540457
129	0xbd306644	-0.043066278
130	0xbd3999f2	-0.04531283
131	0xbc713f74	-0.014724601
132	0x3ba478bb	0.005019275
133	0x3d306eb1	0.043074314
134	0x3d299a8c	0.041407153
135	0xbad647b9	-0.0016348279
136	0xbcab02a0	-0.020875275
137	0xbb75a1be	-0.003748044
138	0xb57d3c91	-9.433798e-07
139	0xbb375ce3	-0.0027978949
140	0x3b2a401d	0.0025978156
141	0x3d712f01	0.058882717
142	0x3cb0b144	0.021568902
143	0xbb83cf12	-0.0040224874
144	0xbd1f21a1	-0.03885043
145	0xbd0b2f3a	-0.033980586
146	0x3d40ac3f	0.047039267
147	0xbc2a26ec	-0.010385256
148	0x3aa56566	0.001261872
149	0xbcbecaa9	-0.023289995
150	0xbc975a2a	-0.01847561
151	0x3d8f7a59	0.07005758
152	0x3cad0fef	0.021125762
153	0xbc79d487	-0.015248424
154	0x3bd2ece4	0.006436931
155	0x3c13b92b	0.009016315
156	0x3c2ca511	0.010537402
157	0xbbc0d827	-0.0058851424
158	0x3ca6d208	0.020363823
159	0x3c90f74e	0.017696049
160	0x3ce57d19	0.028013753
161	0x3cad857a	0.02118181
162	0xbcf4da2f	-0.029889194
163	0x3c768d7a	0.015048379
164	0xbc980694	-0.018557824
165	0x3ca4bf47	0.02011074
166	0x3cb05c60	0.021528423
167	0x3d21b51f	0.03947937
168	0x3d088171	0.03332657
169	0xbbf45975	-0.007456953
170	0x3d3dcc7a	0.046337582
171	0xbcf0ae18	-0.02937989
172	0x3d1799f3	0.03701205
173	0x3d0246a3	0.031805646
174	0x3c9f6a3f	0.019459842
175	0x3d182316	0.037142836
176	0xbbafce96	-0.005365203
177	0xbc3b5379	-0.011433476
178	0xbd3bd7a6	-0.045859955
179	0x3d665101	0.056229595
180	0x3cdc7e09	0.026915567
181	0x3d0bb9dd	0.0341128
182	0x3c4d5e40	0.012534678
183	0xbca29c57	-0.01984994
184	0xbc9cd7cd	-0.01914587
185	0x3c31d2f2	0.010853516
186	0xbd088208	-0.033327132
187	0x3cda30b6	0.026634555
188	0xbbad3158	-0.0052854232
189	0xbcd6eb1f	-0.026235161
190	0xbd1c0eeb	-0.038100164
191	0xbd155a53	-0.036463093
192	0xbc8dc157	-0.017304106
193	0xbc381592	-0.0112356115
194	0x3c85076a	0.016238887
195	0xbcc7f342	-0.024407987
196	0x3c93d223	0.018044537
197	0xbce881aa	-0.028382141
198	0x3cad1832	0.021129701
199	0xbd0e673c	-0.03476642
200	0xbba00196	-0.0048830016
201	0xbc7b15ed	-0.015325052
202	0xbcc1489f	-0.023594199
203	0xbae61904	-0.0017555063
204	0xb8bdbdcf	-9.047577e-05
205	0x3ce1554a	0.02750649
206	0x3c8a9764	0.016917892
207	0xba2d50b0	-0.00066114496
208	0x3d3088a5	0.043099064
209	0x3d503c06	0.050838493
210	0x3d71291a	0.058877088
211	0xbcfe947a	-0.031076659
212	0x3c1d19c0	0.009588659
213	0xbcafcb8c	-0.021459363
214	0x3c8a872a	0.016910154
215	0xbcbfd366	-0.023416232
216	0x3d1ec343	0.038760435
217	0x3d369274	0.044573262
218	0xbd07f708	-0.03319457
219	0xbc95b46c	-0.018274508
220	0x3d23deb5	0.04000731
221	0xbd5cb5df	-0.053884383
222	0xbc810596	-0.015749734
223	0x3d33ad92	0.0438667
224	0xbbabfa4d	-0.005248344
225	0x3b1946a2	0.0023388048
226	0x3d0cd9b3	0.0343873
227	0x3d8e5021	0.06948877
228	0x3d339e9d	0.043852437
229	0x3d33048a	0.0437055
230	0xbba8d6f0	-0.0051525757
231	0xbc128b18	-0.008944295
232	0x3cbeb749	0.023280757
233	0x3cc08636	0.023501497
234	0xbd1b2e83	-0.037886154
235	0x3c8b196f	0.016979901
236	0x3ce716ce	0.028209116
237	0xbc8e350f	-0.017359285
238	0x3c499f7d	0.012306091
239	0x3cf52182	0.029923204
240	0xbd192dee	-0.037397318
241	0xbd1fb282	-0.038988598
242	0x3c37d625	0.01122049
243	0xbc854e39	-0.016272651
244	0xbd386607	-0.045019176
245	0xbce70b51	-0.028203638
246	0x3bb6b43d	0.0055756853
247	0x3cd0eeaa	0.025504429
248	0x3d352d70	0.044232786
249	0xbd18214a	-0.037141122
250	0x3c782fa1	0.015148074
251	0x3c51fc7d	0.012816546
252	0x3c8fa926	0.017536711
253	0x3d0a5790	0.033774912
254	0xbb4e59ff	-0.0031486747
255	0x3d08c0d6	0.033387028
