apps/typegpu-docs/public/mnistWeightsExperimental/layer0.bias.npy (npy, 2176 bytes, 1 tensors)

array f4 [512]
0	0xbba29be6	-0.004962432
1	0x3c370dbd	0.011172709
2	0xbcf4c329	-0.029878216
3	0xbc164272	-0.009171115
4	0xbbc95a6c	-0.0061448123
5	0xbaff8d1e	-0.0019497012
6	0xbd0d1ec2	-0.03445316
7	0xbd1c3d57	-0.038144436
8	0x3c92c03f	0.017913936
9	0x3ca1e234	0.019761182
10	0xbcc72af1	-0.024312468
11	0xbcb423c0	-0.021989703
12	0xbd2c1c0f	-0.042018946
13	0x3b36c9ec	0.002789135
14	0xbce2279f	-0.027606783
15	0xbd6043e3	-0.05475224
16	0xbcb0fd87	-0.021605266
17	0xbbc55846	-0.006022486
18	0xbd4d0ec0	-0.050062895
19	0xbd212521	-0.03934205
20	0x3cf44640	0.029818654
21	0xba1edacc	-0.0006059825
22	0x3c775f0a	0.015098343
23	0xbd26f216	-0.040758215
24	0xbc8cc287	-0.017182602
25	0x3c09c048	0.00840766
26	0x3c845594	0.016154088
27	0x3bb48d46	0.005510005
28	0x3c45d028	0.012073554
29	0xbd287509	-0.04112724
30	0xbceab45a	-0.028650451
31	0xbb8b7955	-0.0042564073
32	0xbd11b319	-0.03557119
33	0xbd180751	-0.037116352
34	0xbcf99d12	-0.030470405
35	0xbd5fe588	-0.054662257
36	0xb9260884	-0.00015834166
37	0xbcf8b22d	-0.030358398
38	0xbd30e55e	-0.04318749
39	0x3ce51b58	0.02796714
40	0xbcf55a49	-0.029950278
41	0x3cbf62b9	0.023362504
42	0xbd36036d	-0.04443686
43	0xbaa1ada0	-0.001233507
44	0xbcb8ac4f	-0.0225431
45	0xbd63f1a8	-0.055650383
46	0xbc626116	-0.013817092
47	0x39484ea1	0.00019102778
48	0xbcc254ce	-0.023722079
49	0xb9fd2a10	-0.0004828726
50	0xbcb3a5d3	-0.021929657
51	0xbcc091dc	-0.023507051
52	0x3c994fb5	0.018714765
53	0xbd066675	-0.032812554
54	0x3b476dd8	0.0030430462
55	0xbc49b10a	-0.012310276
56	0xbb5891f1	-0.0033045972
57	0x3c367ce5	0.011138176
58	0x3aff4fb8	0.0019478714
59	0xbbe54c76	-0.0069976402
60	0xbc75c6f1	-0.015001045
61	0xbd204d38	-0.03913614
62	0xbc0a8748	-0.008455105
63	0xbd5872e0	-0.05284393
64	0x3bc7989d	0.006091191
65	0x3d24b39a	0.040210344
66	0xbd088aa0	-0.033335328
67	0xbc484f02	-0.012225868
68	0xbd0ddc0e	-0.03463369
69	0x3cd07081	0.025444271
70	0xbcbec74b	-0.02328839
71	0x3c40f434	0.011776973
72	0xbd695820	-0.05696881
73	0xbbf1a1b5	-0.0073740133
74	0xbc7954e2	-0.015217992
75	0xbcd90ec3	-0.026496297
76	0x3bc01fe1	0.0058631753
77	0xbc8396af	-0.016063062
78	0xbcc71823	-0.024303501
79	0xbc2d1f79	-0.010566586
80	0xbc8d7a8d	-0.01727035
81	0xbcdc5637	-0.02689658
82	0x3a0df94e	0.00054158724
83	0xbd32039d	-0.043460477
84	0xbcce161c	-0.025157027
85	0xbc78fe63	-0.015197369
86	0xbd513177	-0.051072564
87	0xbcab2360	-0.020890892
88	0x3bd78eea	0.006578316
89	0x3c0d5e0f	0.008628382
90	0xbaf8062a	-0.0018922735
91	0x3ca02865	0.019550512
92	0x3cb77dc3	0.022398835
93	0xbc66d246	-0.014088219
94	0xbd160f01	-0.036635403
95	0xbcc3bf4a	-0.023894925
96	0xbb0983d8	-0.0020983126
97	0x3ba27b6b	0.00495856
98	0x3c068067	0.008209324
99	0xbb128f07	-0.0022363083
100	0xb97c6439	-0.00024069929
101	0xbc92f8bc	-0.017940871
102	0xbbbca568	-0.0057570226
103	0xbd395bba	-0.045253493
104	0x3c50a07e	0.012733577
105	0xbc83b867	-0.01607914
106	0xbb328274	-0.00272384
107	0xbcb49d49	-0.022047656
108	0xbcaac7a4	-0.02084715
109	0x3cf4a1fa	0.029862393
110	0xbd110b28	-0.03541103
111	0x3bfb7f9b	0.007675124
112	0xbb6527fd	-0.0034966462
113	0x3c21b352	0.009869413
114	0xbc830384	-0.015992887
115	0xbbea7812	-0.007155427
116	0xbc6307cd	-0.01385684
117	0xbb93fd47	-0.004516277
118	0xbbc368da	-0.005963427
119	0xbcb066fa	-0.021533478
120	0xbcd7593f	-0.026287673
121	0x3c6ebb6a	0.01457105
122	0x3ca29219	0.019845055
123	0xbd0d4ead	-0.03449886
124	0x3c32aede	0.010905949
125	0xba796fd7	-0.00095152616
126	0xbd0da7bd	-0.034583796
127	0xbc6a1318	-0.014286779
128	0xbc66a219	-0.014076733
129	0xbd0fa505	-0.035069484
130	0xbd4a25a0	-0.04935229
131	0xbd290c27	-0.041271355
132	0xbd3dfa26	-0.04638114
133	0xbd5445c6	-0.051824354
134	0x3b8173f4	0.0039505903
135	0xbc12d0e5	-0.008960937
136	0xbd1402cd	-0.036135484
137	0x3c152f7f	0.009105562
138	0xbce49486	-0.027902853
139	0xbd67cc9e	-0.056591623
140	0xbd6bf7d1	-0.057609383
141	0xbd2e8086	-0.04260304
142	0xbd2b1409	-0.041767154
143	0xbc77fa3e	-0.015135346
144	0x3b4ad738	0.0030951034
145	0x3c2b768b	0.010465275
146	0xbce06aad	-0.027394617
147	0xbd388fbe	-0.04505896
148	0xbd4ee156	-0.050507866
149	0xbca80689	-0.020510929
150	0xbc1dc934	-0.00963049
151	0x3cfd2153	0.03089968
152	0xbcc07835	-0.02349482
153	0x3cd798d1	0.026317986
154	0xbd48ef3e	-0.049056284
155	0xb9bb8c1b	-0.00035771806
156	0x3c4eedd5	0.012629946
157	0xbd02dfd3	-0.031951737
158	0x3bb4d7f6	0.0055189086
159	0xbd35a0e2	-0.044342883
160	0xbd0af313	-0.03392322
161	0xbcf717ea	-0.03016277
162	0xbc4c75d1	-0.0124792615
163	0x3ca0e0c2	0.019638423
164	0x3b96c802	0.0046014795
165	0x3baee087	0.0053368243
166	0xbce6a910	-0.028156787
167	0xbbfc8d76	-0.007707293
168	0xbd65fd03	-0.056149494
169	0xbcfc581d	-0.030803734
170	0xbc3f76a6	-0.011686003
171	0x3acc0cda	0.0015567795
172	0xbba5fc77	-0.0050654965
173	0xbd371a69	-0.04470292
174	0x3d357d50	0.04430896
175	0x3d02a99b	0.03190003
176	0x3c85d3d7	0.016336365
177	0xbba48065	-0.0050201886
178	0xbd887a41	-0.06663943
179	0xbcb0f963	-0.021603292
180	0xbbf79eb2	-0.0075567598
181	0xbcc67212	-0.024224315
182	0x3ba743e9	0.005104531
183	0x3aeadb74	0.0017918185
184	0x3b7c1888	0.003846677
185	0xbbdf8a0b	-0.006821876
186	0xbd007cb6	-0.031368934
187	0xbd8d218f	-0.068911664
188	0xbd2c7aac	-0.042109177
189	0xbc44716e	-0.011989934
190	0xbcf166f1	-0.029468032
191	0x3c440a55	0.011965354
192	0xbb193ad1	-0.0023381005
193	0xbc169da2	-0.009192856
194	0xbcb7d7e4	-0.022441812
195	0xbd1e6850	-0.0386737
196	0x3c45b463	0.012066933
197	0x3c2c0518	0.010499261
198	0x3cc009b8	0.023442134
199	0xbd0c5c9d	-0.03426801
200	0xbce313bb	-0.02771937
201	0x3cd9ed38	0.026602373
202	0xbc18a348	-0.009316273
203	0xbd26b14c	-0.040696427
204	0x3c19716d	0.009365422
205	0x3aee63a5	0.0018187655
206	0xbd291a92	-0.041285105
207	0xbcb39cd0	-0.02192536
208	0xbcae19fc	-0.021252625
209	0x3cef6bf4	0.02922628
210	0x3a7fef4d	0.00097631366
211	0x3c5c3efc	0.013442751
212	0x3c85fd38	0.016356096
213	0xbca0a7dd	-0.019611293
214	0xbd3aa63e	-0.045568697
215	0xbd559251	-0.05214149
216	0xbc0795d8	-0.008275472
217	0xbd28d797	-0.041221227
218	0xbc989dc4	-0.018629916
219	0x3c405886	0.011739856
220	0x3bc084ab	0.0058751903
221	0xbb474d70	-0.0030411147
222	0xbcec3113	-0.028831994
223	0x3c220b79	0.009890431
224	0x3cb3fd55	0.021971384
225	0xbd6b8c3c	-0.057506785
226	0x3bc4e68e	0.0060089296
227	0x3a850470	0.0010148417
228	0xbd1218e7	-0.03566828
229	0xbd410626	-0.047125004
230	0xbd1a5322	-0.037676938
231	0x3c9b6073	0.018966889
232	0xbbc59d10	-0.006030686
233	0x3cfb0bb6	0.030645233
234	0x3b4d9f2b	0.003137539
235	0xbbe4f9e2	-0.006987796
236	0x3d039b09	0.032130275
237	0xbd82b96a	-0.06383021
238	0xbcb63a91	-0.022244724
239	0xbce49fdb	-0.027908256
240	0xbcdee4d7	-0.027208729
241	0xbcbf1431	-0.023325058
242	0x3c02df15	0.007987757
243	0x3a8a4596	0.0010549303
244	0xbd2c9721	-0.042136315
245	0x3c6d2fb9	0.01447671
246	0xbce6f7eb	-0.028194388
247	0xbc68b9c6	-0.014204448
248	0xbd26ddb6	-0.040738784
249	0xbd2d496c	-0.04230635
250	0xbc45c627	-0.012071169
251	0x3c0c632d	0.008568567
252	0xb9f37b02	-0.0004644022
253	0x3bb35d96	0.005473803
254	0xbce41513	-0.02784208
255	0xb91dbdde	-0.00015043418
